model_cnn.pth (torch, 434831 bytes, 8 tensors)

conv1.weight f4 [6, 3, 5, 5]
000000 21 f3 c7 bd 7d cc 2a be f8 ca ba bd 85 ab 17 3d
       -0.0976317 -0.16679569 -0.091207445 0.03702881
000010 4b ac af 3b 0d 2b 0b 3d f4 71 9d 3d 5c 32 4a 3d
       0.005361115 0.033976603 0.076877505 0.049364433
000020 41 a6 85 bd 69 df d7 bd 85 79 af 3d 47 3d dc ba
       -0.06525851 -0.10540659 0.085681 -0.001680293
000030 34 cb 7e bc 47 23 db ba 3e 0d 51 3d 00 a2 bc bb
       -0.015551377 -0.0016718887 0.05103802 -0.0057566166
000040 45 c4 52 ba 41 eb a4 bd 98 ed 80 bc 43 f7 5e bd
       -0.00080401107 -0.080526836 -0.015738294 -0.054435026
000050 a5 8a ca bd 8c f4 87 bd 1e 2f eb b9 ec 23 d3 bc
       -0.098897256 -0.066384405 -0.00044857798 -0.025773965
000060 43 9b 98 bb 23 fc d3 3d 58 d1 b8 3d 86 d0 44 bc
       -0.0046571805 0.10350826 0.09024304 -0.0120126065
000070 aa 08 0f 3d 4e 17 b9 39 aa b1 02 3c 57 ab 55 3d
       0.034920372 0.00035303313 0.007976929 0.052165356
000080 83 92 d0 3d e7 9b f9 3d f3 b5 84 3d ed 6f cb 3d
       0.10184195 0.12187939 0.064800166 0.099334575
000090 5d 76 f1 3d 76 09 dc bb 8e ed 84 bc 61 37 c4 3a
       0.11790154 -0.006714995 -0.016226556 0.0014970117
0000a0 27 5d 04 bd 23 cb 1a 3d 4b d4 58 3c 06 4e cb 3d
       -0.0323154 0.037791383 0.013234208 0.09926991
0000b0 7a 35 82 3c 5f 33 a2 3d 37 4d 8c bd 1c 64 7c 3d
       0.01589464 0.079199545 -0.06850665 0.06161891
0000c0 58 92 e7 bc d0 60 94 bd cf aa 29 3d 35 c1 27 bd
       -0.028268024 -0.07245028 0.04142266 -0.04095574
0000d0 9f 56 a4 bd 77 23 d4 bc 82 a6 91 3d 43 5b a8 3d
       -0.08024334 -0.025895817 0.07111837 0.08220532
0000e0 f3 44 55 3d 4c 30 2e 3e 5a e7 97 bb 95 66 73 bc
       0.05206771 0.17010611 -0.0046357336 -0.014856
0000f0 fc 0d e4 bc b7 02 bb 3d 81 60 b3 3c 98 a2 7c 3d
       -0.0278387 0.09131377 0.021896603 0.0616785
000100 b1 50 af bd 9f 0f 0b 3d b5 5d ed 3d 2a da 0a 3e
       -0.085603125 0.033950444 0.11590139 0.13559785
000110 f0 4c 5d bc ec 4e c6 3c db 00 af 3d b1 6f 10 3e
       -0.013507113 0.024207555 0.08545085 0.14105107
000120 70 e9 df 3c 94 a4 7c 3d a3 52 7e 3c 72 e8 84 3d
       0.027332991 0.06168039 0.015522632 0.06489648
000130 ed ed a4 3d 13 8f 63 3d 58 fb 24 3e 0d 6a 48 3e
       0.08053193 0.055556368 0.16111505 0.19571705
000140 5e 30 16 3e e7 12 db bd 88 8e 8e ba 89 7a b4 bc
       0.14666888 -0.10696965 -0.0010876218 -0.022031086
000150 7e 2c 1c 3e 62 cb 3d 3d 52 2a 7d bc a1 d2 cc bd
       0.15251347 0.04633654 -0.0154519845 -0.10001112
000160 ea 6f b8 bd 7c 42 e4 3b 13 88 86 bc 6b 0e 41 be
       -0.09005721 0.0069659334 -0.016422307 -0.18853156
000170 ed 34 fc bd 96 dc da 3b 5f 28 7a bd 6e 60 71 3c
       -0.12314782 0.006679128 -0.061073657 0.014732463
000180 e6 4e bd bd 9d 29 ff 3a 37 0e e0 bd 8a 79 f6 3c
       -0.09243564 0.0019467358 -0.10940211 0.030087251
000190 fa b7 af bd 26 7c 74 be 4d d3 a0 bd d3 99 75 3d
       -0.085800126 -0.23875484 -0.078528024 0.05996115
0001a0 8a 79 80 bb 67 fe 6f be 3b dc 21 be e3 d7 2d be
       -0.0039207386 -0.2343689 -0.15806668 -0.16976885
0001b0 c4 83 ff 3b 95 44 07 3d 20 6d c8 bd d9 05 06 be
       0.00779769 0.03302439 -0.09786439 -0.13088168
0001c0 bd 26 13 be 4b 47 3c be 2f fc 1d be 5a 43 14 be
       -0.14370246 -0.18386571 -0.15428232 -0.14478818
0001d0 45 39 90 3d 4f c2 b2 3c 5b 2b ed bd 19 28 a3 bd
       0.07042173 0.02182117 -0.11580535 -0.079666324
0001e0 9f 1e 35 3b b2 44 df 3c 95 7f ec 3d ea 53 0d 3e
       0.002763666 0.027254436 0.11547772 0.13801542
0001f0 a1 15 64 3d 97 a9 31 bd bb 47 df bc 7a 86 04 3e
       0.05568469 -0.043374624 -0.027255883 0.12941924
000200 59 36 ba 3c 55 c8 3d bd 20 b1 0a bd ab c4 f6 3c
       0.022730993 -0.04633363 -0.033860326 0.030123075
000210 4f 9b d6 bd 47 48 7b bd 72 d7 8e bc 7b e5 3b 3d
       -0.104788415 -0.061348226 -0.017436717 0.045873147
000220 1b 8a 69 bc c4 97 1f 3e f3 c8 8b 3d f0 7c 0c 3d
       -0.014254118 0.15585238 0.068254374 0.034298837
000230 5d c8 c8 3d 98 c4 4b 3e dc 7b f9 3d 05 88 eb 3d
       0.09803841 0.19899213 0.121818274 0.11500553
000240 56 b3 cf bd d5 cb c2 3d 1d 38 83 3e 56 7b 89 3e
       -0.101416275 0.09511534 0.2562875 0.2685191
000250 b0 b7 81 3e 40 43 e1 3d 34 b6 41 bd 71 58 ec bd
       0.25335455 0.10999155 -0.047292903 -0.11540306
000260 90 f4 2e be 1b e8 ad 3c f7 06 ba 3a 7d 23 eb 3d
       -0.1708548 0.02122884 0.001419275 0.11481378
000270 fc 42 b2 bb 8d 5c ee 3c 0c 6f d6 3d 4e 43 0c 3e
       -0.005440114 0.029096866 0.10470399 0.1369755
000280 8e c3 3c 3e ac f3 0a 3e 80 97 39 3e 3c 3d 82 3e
       0.18433973 0.13569516 0.18124199 0.25437343
000290 2e b2 9d 3d a8 e4 4e 3e ce 86 b2 3d 9b 3e 5e 3e
       0.07700001 0.20204413 0.08717118 0.2170357
0002a0 2b 91 09 3e 88 b0 59 3e 2c 45 9e 3d d3 39 80 3d
       0.13434283 0.21258748 0.07728037 0.06261029
0002b0 35 d0 45 3e 9e f3 4e 3e 65 b5 b8 3c 1f a4 7b 3d
       0.19317706 0.2021012 0.022547433 0.061435815
0002c0 40 74 1a bc e7 36 19 bd 4b e3 36 bd 27 e3 d2 3c
       -0.00942713 -0.037405875 -0.044650357 0.02574308
0002d0 6a f7 91 bd 59 b4 6e bd 58 77 a1 bd 1e 2e fd bd
       -0.071272686 -0.05827746 -0.07884091 -0.12362312
0002e0 de ce f8 bd e6 d9 0a bd 53 ce 67 bd a2 7b 30 3d
       -0.12148832 -0.03389921 -0.05659325 0.043086655
0002f0 5e a7 d0 bd 71 b1 ab bd 37 f1 a5 3c 98 8c 1f 3d
       -0.10188173 -0.08383454 0.020256622 0.03895244
000300 e5 8d 11 3d 04 4c 95 bd 4b 6d 05 be c0 7a b8 bd
       0.03553571 -0.072898895 -0.13029973 -0.09007788
000310 eb ba 03 be f1 a5 e3 3c c3 74 15 be d4 0c 44 be
       -0.12864272 0.027789088 -0.14595322 -0.19145519
000320 79 3b 70 bc 42 a8 65 bc 8e 08 3e 3d ad d8 3d bd
       -0.014662617 -0.014017167 0.046394877 -0.046349216
000330 dc 99 17 3e 51 3b 22 3d 76 5a 89 3d 32 30 5a 3d
       0.14804786 0.03960735 0.06706707 0.05326862
000340 c3 84 7c bd c5 cf be bc 10 b2 28 be 41 d3 c5 3d
       -0.06165005 -0.023292432 -0.16474175 0.09659434
000350 32 72 d2 bd f4 a1 9b bd 74 ce c5 bd a0 8c 53 be
       -0.10275687 -0.075992495 -0.096585184 -0.20659113
000360 0f 2d f1 bd 65 5d 5d bd 4b 64 d3 3c 6f 21 12 be
       -0.11776172 -0.054044146 0.02580466 -0.14270566
000370 ac b8 46 bd 42 ec 3a bd fa 3a 85 bd 93 52 40 3d
       -0.04851596 -0.04563547 -0.065053895 0.04695375
000380 5f da e2 3c 0b f5 e0 3c 52 d5 d0 bd e3 f9 a9 3c
       0.027692018 0.027460596 -0.101969376 0.020749038
000390 ed ac 2c bd 1d fc e0 3c e8 df 87 bd 15 a3 56 bd
       -0.042157102 0.027463967 -0.066345036 -0.05240162
0003a0 7d 03 a0 bd da a4 c5 bc 51 96 5d 3b 55 25 be bc
       -0.07813165 -0.024126459 0.003381152 -0.02321116
0003b0 a0 d2 c4 bd ae 4d ba bd ab 5f c1 bd 07 1b 84 3d
       -0.09610486 -0.090968475 -0.09442075 0.064504676
0003c0 3a 20 86 bd 34 63 c7 bd 5b 5b 9d bd d6 bc a8 bc
       -0.065491155 -0.09735718 -0.0768344 -0.020597856
0003d0 65 86 ab bd 1b c4 c6 bd e2 13 0c 3d 76 0c 11 3d
       -0.08375243 -0.09705373 0.03419865 0.035412274
0003e0 16 e1 e2 bd ba 88 8a 3d 5a 45 69 bd 96 21 38 bd
       -0.11078088 0.0676436 -0.056950904 -0.044953905
0003f0 8e a3 02 be df de 6e 3c 65 17 9f 3c 67 01 f5 bd
       -0.12757704 0.014579504 0.019420335 -0.11963158

conv1.bias f4 [6]
000000 2c 76 00 be 6b 1f a3 3d e9 25 96 bb 6c e8 39 be
       -0.12545079 0.07964977 -0.004582156 -0.18155068
000010 e0 84 1b bc b4 48 d1 3d
       -0.009492129 0.10218945

conv2.weight f4 [16, 6, 5, 5]
000000 f1 dd 0e 3d 7b 7a 9d bd 53 69 8a 3b 1b 7b 91 bc
       0.03487963 -0.07689377 0.0042239814 -0.017758897
000010 e3 d1 cd bd af 15 fc 3c e8 da 03 3d c0 17 0c 3d
       -0.10049798 0.030772058 0.032191187 0.034202337
000020 89 16 a6 bc 7c 06 0f 3d 6f fc d4 b8 c5 74 ba bc
       -0.020274417 0.034918293 -0.00010155967 -0.022760758
000030 f1 2d e0 3b 55 ba c9 bd 10 16 8b bd 5c e9 ca bd
       0.006841414 -0.09849993 -0.067913175 -0.09907791
000040 89 7f 47 bd 47 0d 8f bd 46 53 c2 bd c9 ef 55 3c
       -0.04870561 -0.06984954 -0.094885394 0.0130576575
000050 1c 15 3b bc d9 82 1b 3d 60 24 36 3d 86 8e fb bc
       -0.011418607 0.037966583 0.044468284 -0.030707609
000060 ed 01 41 bd fe eb cf bc 74 95 48 bd 80 f4 ba bd
       -0.047120977 -0.025381085 -0.048970655 -0.09128666
000070 d4 93 5b bd db 75 a2 bd c3 06 91 3d da aa 94 bd
       -0.053607777 -0.079326354 0.07081368 -0.0725915
000080 51 52 24 3d ee 4e 8b 3c f0 1d 4f bd 4b b7 a0 bd
       0.040117566 0.01700541 -0.05056566 -0.0784746
000090 8c d0 a3 bd 35 68 a1 3d d7 4d 9d bd bf 79 60 bd
       -0.079987615 0.07881204 -0.076808624 -0.054803606
0000a0 7f 4c 8e 3d 70 5a 5d bd a4 1f aa bc a1 c7 84 bd
       0.06948184 -0.054041326 -0.02076704 -0.06483389
0000b0 1f 28 90 bd 20 33 cf 3b 42 4b 2d bd 5d 24 74 bd
       -0.070389025 0.0063232332 -0.0423081 -0.05960499
0000c0 a2 52 3a bd 7f b8 e4 3c ae 66 3f 3d 34 95 a0 3c
       -0.04548896 0.027920006 0.046728782 0.019602396
0000d0 7d 1a a7 bd f2 3a 6c bd ca 72 1c bd 60 cb 78 3c
       -0.08159349 -0.057673402 -0.03819541 0.015185207
0000e0 33 84 af 3c fb 03 25 3c d1 60 c1 bd 78 2d 40 bc
       0.021425342 0.01007175 -0.094422944 -0.011729591
0000f0 35 42 ac 3c 34 fd 83 3d c7 e4 36 3b 27 ae fc bc
       0.021027664 0.06444779 0.0027907358 -0.030844761
000100 f2 48 25 bd 63 a9 ba bc a4 4a be bd 84 19 b6 bc
       -0.04035277 -0.022785848 -0.0929158 -0.022228964
000110 e7 23 c6 3c 22 e3 bc bd ad 53 97 bd 68 54 bf bd
       0.024187041 -0.0922301 -0.07389007 -0.09342271
000120 0d 50 08 3d 76 25 9f bd 70 d6 b9 bd 73 17 90 bc
       0.033279467 -0.07770817 -0.09074104 -0.017589306
000130 22 42 18 bd d1 73 45 bd 79 d0 95 bd 85 40 f3 bc
       -0.037172444 -0.048206154 -0.07315154 -0.029693851
000140 8f 01 66 bd 2a 30 90 3d 42 5b 57 bd b6 06 77 3d
       -0.05615383 0.070404366 -0.052577265 0.060309134
000150 6f 5d 8c bd f0 7e ba 3c 8f 02 35 bd 24 85 de 3c
       -0.068537585 0.022765607 -0.044191893 0.027163096
000160 d9 e5 7d bd d7 e4 01 bd f9 c7 8e 3d a4 59 31 bd
       -0.061986778 -0.03171238 0.069717355 -0.04329838
000170 93 fe b5 bc 5d 50 5e 3c ec 3b 38 bc 24 6c 4f ba
       -0.022216117 0.013568965 -0.011244755 -0.00079125375
000180 bc 1e 6b 3c ef a5 a0 bd 09 74 c8 bc d1 a7 f2 bb
       0.014350589 -0.07844149 -0.024469392 -0.007405259
000190 ea 08 ad bd 60 17 d9 bc 9a 9d a1 bd e1 f6 5f 3d
       -0.08448966 -0.026500404 -0.07891388 0.0546788
0001a0 8d 39 a1 bd 51 18 4e ba 8d 35 af 3a 83 84 7b bd
       -0.07872305 -0.00078619 0.00133674 -0.06140567
0001b0 7e c2 6c 3d d4 c6 81 bd 2c 57 cd bc 6a 81 0c 3d
       0.05780267 -0.063367516 -0.02506598 0.034303106
0001c0 72 32 6b bd 8d 7d f9 3c a5 7c d8 3c 12 42 18 bd
       -0.057421155 0.030455375 0.026426623 -0.037172385
0001d0 52 9c 0b bd 3d eb 8f bc fe ca 47 bd 5c c8 c2 bc
       -0.034084626 -0.017568225 -0.048777573 -0.02377718
0001e0 43 6f 8c bc 42 67 56 bd bf be c0 bc 8c 4d 58 bd
       -0.017142897 -0.052344568 -0.023528455 -0.05280833
0001f0 fe 80 32 bb 9c ac 4c bd f9 f4 5e bd c3 de 3c bb
       -0.002723753 -0.0499693 -0.054432843 -0.00288193
000200 3b 6c 32 3d 81 3a 4b bd 47 05 86 bd 0c cc 70 3d
       0.043560248 -0.04961634 -0.06543975 0.058788344
000210 3c 2d 96 bd 79 fd 0c 3b ee 88 bb bd 3e cf 8a bc
       -0.073328465 0.0021513386 -0.09156977 -0.016944524
000220 47 31 21 3c 8b a2 92 bd 6d 90 c2 bd 58 2a 5f 3d
       0.009838409 -0.07159909 -0.09500203 0.05448374
000230 ac 71 b6 bd d2 e7 23 bd b9 d5 dd bc 1e b4 38 bd
       -0.089084 -0.040016003 -0.02707945 -0.045093648
000240 c3 02 c1 bd 19 3b 6a bc 57 5b b8 bd 80 c6 7d 3c
       -0.09424355 -0.014296317 -0.09001797 0.015489221
000250 4e 49 da bd e4 79 dd 3c 5c be 0a 3e e4 d7 b6 3d
       -0.10658513 0.027035661 0.13549179 0.089278966
000260 bf 12 55 3d 2b 40 0e 3e f1 54 40 3d ab ad 6e 3c
       0.05201983 0.13891666 0.046956006 0.014567773
000270 87 e8 ca 3d 71 6f ac 3d bf 4a ff 3c d3 4e 55 3d
       0.09907632 0.08419693 0.031163571 0.052077126
000280 e8 d0 de bd 53 dd b5 bd 06 79 89 bd 34 3b a1 3d
       -0.108796895 -0.08880105 -0.067125365 0.0787262
000290 6b e1 d1 3d 89 49 57 3c f9 64 7a be b3 95 0f be
       0.10248073 0.013140091 -0.2445258 -0.1402195
0002a0 a2 6d b5 bd 35 b5 8e 3c da 44 2b bc e8 18 8d bd
       -0.088588014 0.01742039 -0.010453427 -0.06889516
0002b0 ea 30 a8 be 6d 9b 6a be 40 5e 57 bc cd 7c b5 bd
       -0.32849818 -0.22910853 -0.01314503 -0.088616945
0002c0 47 3f 03 3e 71 52 a5 3d 6d f2 5b 3d 4b 9e 19 bc
       0.12817107 0.08072365 0.053697992 -0.009376119
0002d0 4b a1 1b be 3c 59 f0 bc b3 21 e7 3d 60 ee 17 3e
       -0.15198247 -0.029339425 0.112857245 0.14837027
0002e0 c1 1a d3 bd d5 a0 8a 3d c2 3f 30 be 4a 95 36 be
       -0.10307837 0.067689575 -0.17211822 -0.17830387
0002f0 82 e1 0b 3e 69 96 14 3e 45 76 1e 3e 56 80 a2 3e
       0.13660243 0.14510502 0.15474804 0.31738538
000300 fb d9 12 be 3e e0 c2 be 2c c0 a3 bd 38 de 9b 3d
       -0.14340965 -0.38061708 -0.07995638 0.07610744
000310 bf af 83 3e d8 77 c8 3e 21 98 8c 3c 61 22 0f be
       0.2572002 0.39153934 0.017162384 -0.13977958
000320 24 35 25 3b 78 1a 89 bc 37 37 01 be 04 b7 4e bd
       0.0025208676 -0.016736254 -0.12618719 -0.050467506
000330 1f 6f 9a 3c 0a 91 fd 3c 3d 9c ce 3d b7 cc 1e 3e
       0.018851815 0.03095295 0.10088394 0.1550778
000340 37 35 9b 3d 77 e6 d3 3c c3 39 b7 3b 26 25 ab 3d
       0.07578509 0.02586673 0.0055916025 0.08356695
000350 4e 87 8e 3d 6f 9b d8 3d 06 f8 ba bc 89 bc ea 3a
       0.06959401 0.105765216 -0.022823345 0.0017908971
000360 e5 c8 b9 3d d0 c4 9e bb 93 59 fe 3d ba ff cf 3d
       0.09071521 -0.004845239 0.12419429 0.10156198
000370 b3 a8 28 be 9c d8 af bd 3a 89 2a bd 77 7c 06 be
       -0.16470604 -0.08586237 -0.041634776 -0.13133417
000380 9a 76 86 3d 73 40 87 3c cd fd 7a bd 16 c2 b7 3d
       0.0656559 0.016510224 -0.0612772 0.08972566
000390 eb bc 61 3d 65 85 fb 3a f0 5c 28 3d 0b 95 fe bc
       0.055111807 0.0019189535 0.041104257 -0.031076929
0003a0 74 6a 53 3d d6 6f 26 bd 50 d0 d8 3c 80 32 74 bd
       0.051615193 -0.040634 0.026466519 -0.059618473
0003b0 4a 84 2c 3c 5b 68 80 3b 58 03 84 3d 87 94 2a 3d
       0.010529587 0.00391869 0.0644595 0.041645553
0003c0 67 c1 0c bd 5a 6c 90 3d c0 9c 11 bb 77 c9 49 bc
       -0.03436413 0.070519164 -0.0022218674 -0.012316099
0003d0 10 f6 3d 3c 14 4e 5b 3d 43 9f a3 bc 46 91 8c bd
       0.01159431 0.053541258 -0.019973403 -0.06863646
0003e0 e3 97 ff 3c 38 9e 87 3b 20 54 49 bd 18 c7 4a bd
       0.031200355 0.004138734 -0.049152493 -0.049506277
0003f0 63 12 f0 3c 61 33 08 3d db e2 c0 bb 5f ca a9 3c
       0.029305642 0.033252124 -0.0058864183 0.02072638

conv2.bias f4 [16]
000000 8c 27 26 bd 6e c2 ea bd a7 de d6 3e d0 fe 75 3e
       -0.04056506 -0.11462866 0.41966745 0.24022985
000010 51 13 b2 3d af e1 06 be b4 a1 a4 bd 18 ef 37 3e
       0.086950906 -0.13172029 -0.08038655 0.17962301
000020 b5 de 85 be b1 72 a3 be 75 89 99 3d 7b 6a 16 3e
       -0.26146474 -0.3192344 0.07496921 0.14689057
000030 bf d7 a2 3e 78 f6 47 3e 18 b2 60 3e ce ed a2 3e
       0.31805226 0.19527614 0.21942937 0.31822056

fc1.weight f4 [256, 400]
000000 67 07 28 3b 8b d6 05 bd 10 3e 9c bc 7f b3 18 bd
       0.0025639178 -0.032675307 -0.019072562 -0.037280556
000010 33 59 8a 3b 2a ed f6 3c 5a 7f b9 3c 67 c6 52 38
       0.004222059 0.030142386 0.022643734 5.025268e-05
000020 f7 59 c3 bc fd 1a a8 bc 00 19 b0 3c e8 20 45 3d
       -0.02384661 -0.020520682 0.021496296 0.048127085
000030 7a 47 2f 3d 55 9f 20 bd d3 57 84 bc 83 41 81 bc
       0.042792775 -0.03921445 -0.01615516 -0.015778309
000040 8d 5d e2 bb 17 83 e1 3c 5a d7 34 3c 2d 49 40 3c
       -0.006908125 0.027528329 0.011037672 0.0117361965
000050 47 b7 1f 3c 20 91 09 3d e8 24 27 3d 00 de 26 3c
       0.009748287 0.033585668 0.04080668 0.010184765
000060 0d e0 f6 bb 87 0f 0c 3c 36 e2 f4 3a db 23 11 3b
       -0.007534033 0.008548624 0.0018683139 0.0022146616
000070 14 65 4e bc 1e 16 13 3d 26 f6 8e bc 28 6e 89 bc
       -0.012597341 0.035909764 -0.017451357 -0.01677616
000080 02 b4 9e 3b 11 2b 92 bd 36 b0 5a 3c 0c 01 9d bd
       0.004843236 -0.071371205 0.013347676 -0.07666215
000090 84 08 bf bd 31 d9 d8 bd 0d 39 c9 bd 23 cb c9 bc
       -0.09327796 -0.10588301 -0.09825335 -0.024632996
0000a0 33 91 bf 37 a7 4d 7c bd 65 f2 85 3b 5b 25 05 bd
       2.2836588e-05 -0.061597493 0.0040877336 -0.032506328
0000b0 58 b4 e2 bd 5d 2b 70 3d 5b c8 21 3c b4 f2 8f bc
       -0.11069554 0.058635104 0.009874429 -0.017571785
0000c0 e9 72 94 bd 94 4c 71 bd 3f 2c b3 bc 81 b6 65 bd
       -0.0724848 -0.05891092 -0.021871684 -0.056082252
0000d0 45 cc 85 3c 7f 6f 89 bd 07 b9 88 bc 73 fe d3 bb
       0.016332755 -0.06710719 -0.01668979 -0.0064695417
0000e0 35 7e 27 3c 88 2d 0c b7 ba 16 9e 3d 27 70 15 bd
       0.010222961 -8.355251e-06 0.077191785 -0.03648391
0000f0 45 a8 f9 bb a7 ef 99 bd 5f 51 ba bc 2b 67 31 bd
       -0.0076189362 -0.07516413 -0.022743879 -0.04331128
000100 fb e5 8f 3c 40 46 53 bb 14 68 ae bc 4a 4f 79 ba
       0.017565718 -0.0032237917 -0.021289863 -0.0009510411
000110 28 71 c9 bc da c5 7e bb 61 ad 30 3c 43 9f cf bc
       -0.02459009 -0.0038875253 0.010783524 -0.025344497
000120 64 42 c9 bd 0f f9 b2 bd 8a 26 23 bd b1 a4 c6 b8
       -0.09827116 -0.087389104 -0.039831676 -9.472052e-05
000130 f9 ca 4a bc 57 c4 d3 bd f0 c1 83 bc 11 e8 51 bd
       -0.012377494 -0.10340183 -0.016083688 -0.051246706
000140 ee 06 3c 3d 3f 70 47 bd e2 1d c3 bd b0 02 62 bc
       0.045905046 -0.04869103 -0.09527184 -0.013794586
000150 6d 11 ad bd 2f d8 3c bd d5 ae bb bd e4 2d 8a bd
       -0.08450589 -0.046104606 -0.09164206 -0.06747034
000160 f4 a5 46 bd a7 27 b5 bd 2c 18 8b bb a7 7a fe bc
       -0.04849811 -0.08845454 -0.004244825 -0.031064345
000170 bf 39 04 bd 51 bc dc 3b a8 67 d6 bc c3 aa 48 bd
       -0.032281633 0.0067363163 -0.026172474 -0.048990976
000180 06 28 20 3c 5b 41 a6 bb 15 1c c1 bc 8f de e5 3b
       0.009775167 -0.005073709 -0.02357296 0.0070150564
000190 23 84 ae 3b 70 98 f2 bd 39 94 16 3d 89 bd 5f ba
       0.0053258105 -0.118454814 0.03676245 -0.0008535018
0001a0 b4 31 b3 bd 7a e8 ed bd 73 c7 ed bd e3 37 be 3b
       -0.087497145 -0.11616607 -0.116103075 0.005805002
0001b0 2a c6 92 bc 93 c0 f5 bb 3b a4 97 bd 57 ec a3 bd
       -0.017916758 -0.0074997633 -0.07404371 -0.080040626
0001c0 db 62 8d bc 80 fa 36 3d 62 29 bd bc 0b e7 b6 bd
       -0.017259052 0.04467249 -0.023091022 -0.08930787
0001d0 0d 97 60 bd a9 3c a3 bd a0 ee 19 bd cf 4e c0 bc
       -0.054831553 -0.079705544 -0.037581086 -0.023475079
0001e0 34 21 ac bd 8b 2f 6d bd 76 6a 58 bd af bd df bc
       -0.084047705 -0.05790667 -0.052835904 -0.027312128
0001f0 70 b5 81 bd d2 de 92 bc ef 14 8f 3d b5 a0 75 bd
       -0.063334346 -0.017928515 0.06986415 -0.059967715
000200 ea 55 81 bd f7 2b e7 bb ee 93 72 3d b7 9e a3 3c
       -0.06315215 -0.0070548016 0.059223108 0.019973142
000210 b8 78 80 bd c1 54 2e bd 56 34 da bb 97 70 45 ba
       -0.06273025 -0.042561296 -0.006659071 -0.0007531731
000220 9c de 0d bd 6b 02 5e bd 21 7d 1c bd f3 54 cc bc
       -0.034636125 -0.054201525 -0.03820527 -0.02494285
000230 2c 58 64 bd a6 dd 41 bd 14 a3 16 bc ae a9 95 bd
       -0.05574815 -0.04733052 -0.009194154 -0.073077545
000240 5b 69 76 3c 82 11 12 bd c9 b3 3f bd 3a 26 e8 bc
       0.015039767 -0.035661228 -0.046802316 -0.02833854
000250 b4 2c 96 bd 8a b3 77 3d 24 e4 31 bd 2f 05 4c 3d
       -0.07332745 0.060473956 -0.043430462 0.04980963
000260 c1 cc ac bc 11 5d 61 3d f8 97 0a bd 32 0c 80 bc
       -0.021093728 0.055020396 -0.033836335 -0.015630815
000270 5e cd 9d 3c 9c 8f 1d 3d 30 6e 1f bd 5e 0d dc 3c
       0.019262966 0.038467035 -0.038923442 0.026861843
000280 a0 99 2f bd a1 73 d9 bc d0 d7 ed 3b b6 4f 04 bd
       -0.042871118 -0.026544394 0.007258393 -0.03230258
000290 cb 6a 8e bc 57 0e 9d bd 64 5c 2f bb f0 f7 15 bd
       -0.017384907 -0.07668751 -0.002675795 -0.036613405
0002a0 ae 01 93 bd 58 4a 6b 3c e6 a1 b7 3c 48 dd d0 3c
       -0.07178055 0.014360987 0.022416066 0.02549614
0002b0 dc f0 cc bc 62 8b ba bd bb c2 24 bd 0e 0d a4 bd
       -0.025017194 -0.091086164 -0.040224772 -0.080103025
0002c0 61 26 b1 bd 60 8d ad bd f4 30 8b bd 96 12 98 bd
       -0.08649898 -0.08474231 -0.067964464 -0.0742542
0002d0 9f a4 0d be f7 b9 66 bd df 68 bd bd 9f 87 dd bd
       -0.13832329 -0.056329694 -0.09248518 -0.10816883
0002e0 1d 7a 79 bc ab 92 b1 bd 9b fb 5d bd a0 9a 4a bd
       -0.015226868 -0.08670553 -0.054195028 -0.04946387
0002f0 cf e8 10 bd 09 f9 c9 bc 5d 57 88 bb d6 ec 98 bc
       -0.035378274 -0.024654882 -0.004160805 -0.01866762
000300 21 c8 a6 3b ef 56 76 bd a9 b6 52 bb f2 ab 01 3a
       0.005089775 -0.0601415 -0.003215233 0.00049465813
000310 f3 10 d5 3b 14 83 59 bd 84 64 aa bb 32 2f 0d bd
       0.0065022646 -0.05310352 -0.0051999707 -0.034468837
000320 f2 c8 2d bd fb 55 b0 3d 92 40 7f 3d 1d 41 83 3c
       -0.042427965 0.086101495 0.06231744 0.01602226
000330 99 f9 50 bc 18 2c 5c bd 60 10 8a 3c 24 39 d9 bc
       -0.012754821 -0.05375299 0.016853511 -0.026516505
000340 b1 d0 9c 3b 07 67 36 bd 7a 07 b4 bb b5 9d 87 bd
       0.00478562 -0.04453185 -0.0054940553 -0.06621877
000350 6e 6f b5 bc 26 10 42 bd cb 48 3d bc 79 11 cb bd
       -0.02214786 -0.04737868 -0.011553 -0.09915442
000360 2d 1b 87 bd 0e c9 80 bd 77 83 77 bd 51 cf ad bd
       -0.0659698 -0.06288348 -0.06042811 -0.08486808
000370 06 ee 27 bd 17 00 29 bd f1 68 ac bd ee a6 4a bd
       -0.04099848 -0.04125985 -0.084184535 -0.049475603
000380 03 fd 2d bd b4 ec bd 3c 6a d8 ab bd ee 3d 30 bd
       -0.04247762 0.023184158 -0.08390887 -0.04302781
000390 60 a5 c0 bd 8c 76 9c bd 0d 61 ae 3c 0a a7 0a bb
       -0.09406543 -0.076397985 0.021286512 -0.0021156692
0003a0 a8 35 d8 3c 36 04 58 3b 7a f1 0c ba b7 50 0c 3b
       0.026392773 0.0032961494 -0.0005376559 0.0021410414
0003b0 d1 5d fc bc 4d d6 99 3d 04 18 00 3d 63 62 e2 3c
       -0.030806454 0.07511578 0.031272903 0.027634805
0003c0 a1 bb b2 bd 1c b6 a2 bd 2c 42 00 3d c4 aa 84 bb
       -0.087271936 -0.07944891 0.031313106 -0.004048677
0003d0 76 9e 5b 3c fc c9 ad bc f7 7d 6a 3c 3b 24 26 bd
       0.013404479 -0.021214478 0.014312259 -0.040561896
0003e0 84 c4 15 bd ae c6 5a bd 3c ac 05 bc 43 39 a2 3c
       -0.036564365 -0.053412132 -0.00815874 0.019802695
0003f0 00 25 1c 3c 50 2e 66 3c 2f 44 37 3d b7 cd 13 bc
       0.009530306 0.014049128 0.04474276 -0.009021214

fc1.bias f4 [256]
000000 ef 01 dd bd ea f1 18 bd 8b e8 95 3e 78 21 66 bd
       -0.107913844 -0.037340082 0.2927898 -0.056184262
000010 2d 3a 1e bd 9e 75 d3 3e a6 4a b1 bd 2a 49 a2 3d
       -0.0386297 0.41300672 -0.08656816 0.07924111
000020 b7 07 47 3e 0c 52 46 3c 6c 19 ea bd a1 3a ad 3e
       0.19436537 0.012104522 -0.1143063 0.33833793
000030 09 d2 c8 3d 18 cc 8f bd 2c 03 93 bc e2 0d 72 bd
       0.09805686 -0.0702135 -0.017945848 -0.05909527
000040 33 1a e6 3b 39 65 b1 3c b6 d8 86 3e 29 e3 bc 3e
       0.007022166 0.021654712 0.26337212 0.3689206
000050 c4 07 f4 bd f9 21 69 bd 96 8e aa 3e b4 1d 79 be
       -0.11915544 -0.056917164 0.3331191 -0.24327737
000060 14 2c 9b 3e 2c fb 67 be c3 5f b5 be 21 ef 9e 3c
       0.30307066 -0.22654408 -0.35424623 0.019401135
000070 85 a3 e5 3e 82 d1 e7 3e 7d f4 20 3f d2 28 90 3e
       0.44851318 0.4527703 0.6287306 0.28156143
000080 b0 18 1c 3f f6 cf bf be ba fc 98 be f1 53 86 3e
       0.6097517 -0.3746335 -0.29880315 0.26235917
000090 aa a8 47 bd 22 25 cc 3e 13 cb 3c be b5 f3 66 bc
       -0.048744835 0.3987208 -0.18436842 -0.01409619
0000a0 ec 91 ae bd b3 32 e7 3d 7f 53 cd 3a 8e 04 e6 3b
       -0.08523926 0.11288967 0.0015665143 0.007019586
0000b0 e8 06 4c 3e 1c 11 a7 bd 0d b2 4b 3e 2a 63 d6 bc
       0.1992451 -0.0815756 0.1989214 -0.026170332
0000c0 33 15 5a 3e 33 bb 82 3e 31 5e 82 bd d3 16 0c bc
       0.2129715 0.25533447 -0.06365622 -0.008550364
0000d0 d2 42 81 be 1c 8e 0f 3c 44 3e a1 3d a8 be 7f bd
       -0.25246292 0.008761909 0.07873204 -0.062437683
0000e0 6f 0d 10 3e 14 e3 6b bd 17 5e 26 3e dd 29 9c bd
       0.14067625 -0.057589605 0.1624683 -0.07625172
0000f0 9a 91 96 bd ba f0 6e bc c5 f8 12 3f dc 75 87 3d
       -0.0735199 -0.014583761 0.5741084 0.06614277
000100 6c 44 d7 3e ba 62 da 3e fa 92 98 3d 0c 6e f4 3b
       0.4204439 0.42653447 0.074499086 0.0074594077
000110 d2 4a 0c 3f 64 8d c9 3e b6 e3 52 bd bb eb ae bb
       0.54801667 0.39365685 -0.051486693 -0.00533816
000120 86 03 8d 3d e9 37 97 3c 66 86 9b 3e 33 e7 48 be
       0.06885438 0.018459277 0.30375975 -0.19619446
000130 79 8f b5 bd cb 62 05 bd fa e9 76 3e 8c 83 81 be
       -0.08865256 -0.03256492 0.24112692 -0.25295675
000140 0a b9 c2 be d6 af 24 be cf a3 cc 3e 06 82 d9 3e
       -0.380318 -0.16082701 0.39968726 0.42482013
000150 db 38 af bd be 72 5c 3e f1 2f 33 3e a5 ed a0 bc
       -0.08555766 0.21528146 0.17498757 -0.019644568
000160 c8 fa 1a 3e 31 f9 0b 3e 6b 66 3b 3e a7 00 80 3b
       0.15134728 0.13669278 0.18300788 0.0039063278
000170 6c 13 0c 3f e9 0d 9b bd 75 92 c4 3e 6c 4d 2d bd
       0.54717135 -0.075710125 0.38392988 -0.042310163
000180 d2 80 3c bd 5b 50 e2 3e 75 69 9b bb 91 2c e6 3d
       -0.04602129 0.4420193 -0.004742796 0.11238969
000190 09 d5 61 3d 84 33 93 bd 8a 92 d9 3d ac 97 83 be
       0.055134807 -0.0718756 0.10623653 -0.25701654
0001a0 82 be de 3e 7e f2 68 3e 48 15 05 bd 80 d6 95 3c
       0.4350472 0.22748753 -0.032491 0.018290758
0001b0 c8 0d b4 3d a3 d1 9f 3e 6c 29 b2 3e 2c 13 bf 3e
       0.08791691 0.31214628 0.34797227 0.37319314
0001c0 bb 1d b7 be 99 22 0b be b9 50 22 3e 9f a3 a0 3e
       -0.3576487 -0.13587417 0.15851106 0.31374833
0001d0 a6 01 34 be cb c3 6f bc ba a7 ea 3e d2 24 91 bd
       -0.17578754 -0.014634083 0.4583109 -0.07087101
0001e0 87 ef e2 bc 51 a1 46 3c d9 a2 6c bd 93 e2 67 bd
       -0.027702106 0.012123422 -0.05777249 -0.056612562
0001f0 21 f7 b5 3e d8 3b d2 3c b5 63 08 3f 7b 2b d1 3e
       0.35540107 0.025663301 0.5327714 0.40853485
000200 58 ca 02 3f f2 95 e7 3e 04 13 a7 3e 9f 42 85 bd
       0.5109 0.45231587 0.32631695 -0.065068476
000210 b5 77 54 be 09 f2 6c bc ad 17 e5 3c 17 d5 91 bd
       -0.2074879 -0.014462003 0.027965391 -0.07120722
000220 ca e0 12 3d 73 05 81 3e bd a3 ea 3e 7c b9 03 3e
       0.035858907 0.2519947 0.45828047 0.12863725
000230 d7 1a 88 bc 2b a7 51 b9 01 af 08 be 42 65 55 3d
       -0.01661436 -0.00019994068 -0.13348009 0.05209852
000240 93 c1 ab be b0 7b 95 be ab ba 8c 3e 76 6f e9 3e
       -0.33546123 -0.2919593 0.27486166 0.4559285
000250 fe 1a 93 bc 99 88 bd 3e bb d4 c6 bb 3b 9e 1b 3e
       -0.017957207 0.37018278 -0.00606784 0.15197079
000260 bb ef eb 3e dc 3d 07 3f f0 7c 3c be eb 3b 06 3e
       0.46081337 0.52828765 -0.18407035 0.13108794
000270 b7 3e 98 3e 16 21 54 bd 14 42 9f 3d ee 0c 87 bc
       0.29735348 -0.051789366 0.07776275 -0.016485658
000280 f0 6a 11 3d 2e ad 61 3d 7c 80 df 3c 73 25 bf 3c
       0.035502374 0.055096798 0.027282946 0.023333287
000290 a7 01 07 3e d9 c7 8e bd 6d 6a 17 3d 56 b7 2c 3d
       0.13184224 -0.06971712 0.03696673 0.04216703
0002a0 53 56 c9 3e 68 a0 1f 3e 7a 04 a5 bc 22 43 82 3d
       0.39323673 0.15588534 -0.020143736 0.06360461
0002b0 0f fa e3 3b e9 00 03 3d 2c 92 28 3e ee 5b 88 3e
       0.0069572995 0.03198329 0.1646201 0.26632637
0002c0 a2 9a 1f 3f 81 03 5a 3e b7 95 9d bd 88 9c 86 bd
       0.62345326 0.21290399 -0.076945715 -0.06572825
0002d0 b3 8b cd 3e 72 b3 db 3e c3 10 52 3e 32 2c 44 bc
       0.40145645 0.42910343 0.20514207 -0.011973428
0002e0 66 78 14 3e 57 ba b7 3d ba 9e c4 3c d7 4d d3 bd
       0.14499053 0.089710884 0.024001468 -0.10317581
0002f0 08 21 9c 3c f3 92 e1 3c 1a b2 c7 3d 6a 9d 11 bd
       0.01905872 0.027535891 0.09750767 -0.035550512
000300 18 a7 be 3e 12 7c 64 bd 08 d5 05 bc ea 38 1a bd
       0.37236857 -0.055782385 -0.008168466 -0.037651934
000310 b9 d8 c8 bc 94 c4 d1 3c 85 e4 1a 3d 71 6c 83 3e
       -0.024517404 0.025606431 0.03781559 0.25668672
000320 e2 16 da 3c 0f a3 67 3d 14 ec b2 be b5 02 0d 3e
       0.02662224 0.05655199 -0.34945738 0.13770564
000330 35 56 85 3e e2 da 46 3e 90 70 cc bd a7 d5 44 bd
       0.26042333 0.19419435 -0.09982407 -0.048055317
000340 32 a5 67 bd a4 4f 12 bd 8e b6 05 3f 47 ac f7 bd
       -0.056554027 -0.035720482 0.5223168 -0.12093406
000350 da df c3 bc 34 09 25 3e 82 30 ae 3e fd b8 26 bd
       -0.023910452 0.16116792 0.34021384 -0.040703762
000360 a4 f4 08 bd 7d 7f 83 bd f3 96 89 bd f0 47 5e bd
       -0.033436432 -0.06420801 -0.067182444 -0.054267824
000370 72 51 f0 3e ef a3 dd 3d e1 89 27 3f 1b 82 05 bd
       0.46937138 0.108222835 0.6544476 -0.03259478
000380 a9 54 3c be 17 0a 20 3e 8a fd 32 bc 13 35 91 3e
       -0.1839167 0.15628849 -0.010924706 0.28360805
000390 25 02 80 3c 96 9c 96 3e 3b 0a 21 bd f5 c7 6a bd
       0.015626023 0.2941634 -0.039316397 -0.0573196
0003a0 3e c2 b5 be 19 7d ca be 83 c5 04 3e 09 a6 97 bd
       -0.35499758 -0.39548567 0.1296597 -0.074047156
0003b0 e3 de 38 be 17 ff cc bb c5 f0 30 bd 90 b3 2d bc
       -0.18053775 -0.006255995 -0.043198366 -0.010601893
0003c0 d5 49 87 bd a9 b1 15 bb de f5 bc bc b1 3c 7c bd
       -0.06605879 -0.002284149 -0.023066457 -0.061581317
0003d0 1b 85 98 bd 12 50 81 bc 5c 5f 08 3f 0b a8 0c bd
       -0.07447263 -0.01578525 0.53270507 -0.034339946
0003e0 58 b6 ba 3c 19 ce 86 3e 14 60 7d 3e 90 53 72 be
       0.022792026 0.26329115 0.24743682 -0.23664689
0003f0 f9 1a 15 3e 8b c5 96 3e c5 c5 fd bc 29 43 a2 3e
       0.1456107 0.29447588 -0.030978093 0.31691864

fc2.weight f4 [10, 256]
000000 d0 8d 65 3d b4 fc d6 bd a9 ea 1a bd 50 cf 8f 3d
       0.056043446 -0.10497418 -0.037821446 0.070219636
000010 be 4b 63 3b 45 9b f7 bd 2f f2 c2 bc 56 da a6 3d
       0.0034682597 -0.12090162 -0.023797123 0.08147113
000020 cf b9 d7 bd 84 a0 05 3d 31 9f 95 bd ff 3c 6e be
       -0.10533487 0.032623783 -0.07305754 -0.23265456
000030 7c 16 7a 3d 5c 08 ea bc 12 91 a9 bd 90 40 f7 3c
       0.0610566 -0.02856844 -0.08279623 0.030182153
000040 3a 26 d5 3c ba 90 4f 3d 99 a1 d9 bd 8c f0 ec bd
       0.026019204 0.05067513 -0.106265254 -0.11569318
000050 88 e8 42 3d 3c 8b 17 bd bd 4d dc bd 84 46 3c 3d
       0.04758504 -0.03699802 -0.10757015 0.045965686
000060 f7 53 b1 bd 80 b6 58 bd a9 b7 62 3e 26 65 6e be
       -0.08658593 -0.05290842 0.22140373 -0.23280773
000070 8d ea 07 be 97 a6 da 3d 7f a2 c4 be 9c 03 eb bc
       -0.13273068 0.10676306 -0.38405225 -0.028688245
000080 e9 0c c4 be 16 fc 04 3e 14 5a bd bd 40 d2 b0 3d
       -0.382911 0.12986788 -0.09245697 0.08633852
000090 19 83 9b 3c e0 44 e5 bb 31 fa 28 3e a1 24 d8 3c
       0.01898341 -0.006996736 0.1650169 0.026384654
0000a0 8e 33 ff bc d3 97 84 be fb 7b 32 bd a6 61 08 be
       -0.031152513 -0.25897083 -0.04357527 -0.133185
0000b0 11 63 d9 ba 03 a5 b6 3d cb be 43 be bb f2 16 be
       -0.001658531 0.08918192 -0.1911575 -0.14741032
0000c0 fa 63 94 be 38 47 ca be 1e fa bd bd 7d a8 bc bd
       -0.28982526 -0.3950746 -0.09276222 -0.09211824
0000d0 b1 05 28 3e 41 1d 31 3d 56 ea 6f bc 76 f5 48 be
       0.16408421 0.04324079 -0.014643272 -0.19624886
0000e0 17 4f 21 3e 9c bb 57 bc 5e 3c 03 be 82 0a ff bb
       0.15752827 -0.013167288 -0.12815997 -0.007783235
0000f0 37 a5 20 be 03 c5 4a bd 54 fd 07 be 87 35 9c be
       -0.15688024 -0.04950429 -0.13280231 -0.30509588
000100 00 04 4b 3e 8f e7 e2 3d 18 ef 3e 3e 6d ed 32 3d
       0.19825745 0.110793225 0.18645895 0.043683458
000110 fc b2 bf bb cb 42 3e be c6 2e ab 3d 4c 9c b2 bc
       -0.005850194 -0.18580167 0.08358531 -0.021803044
000120 c0 dd 2c be e9 ff e9 bd ed bc 2a 3e 0a 9d 6b 3d
       -0.16881466 -0.11425764 0.16673632 0.05752281
000130 aa f3 6d bd 9b 15 80 bd ab b0 c2 3d 21 cf b9 bd
       -0.058093704 -0.06254121 0.09506353 -0.0907271
000140 04 02 e3 3d 99 87 0a bd c6 2e 0d be c6 ae 8e 3d
       0.11084369 -0.033820722 -0.13787374 0.06966929
000150 c2 a2 82 be b8 18 3b 3e 88 e5 e6 3d 6a 8b 7a 3d
       -0.255148 0.18271148 0.11274248 0.06116811
000160 78 23 7a 3c f3 83 b2 bd 2f 23 ab 3d 43 b3 14 bc
       0.0152672455 -0.087165736 0.0835632 -0.009075942
000170 26 54 68 be 45 c5 99 be 58 cb 6a be cc bc 1e bd
       -0.2268835 -0.30033317 -0.22929132 -0.03875427
000180 11 60 27 bd a7 ee 1f bd 73 83 50 39 8c 59 d1 bd
       -0.0408631 -0.039045956 0.00019885394 -0.10222158
000190 ec 73 50 be a8 32 e3 3d a4 c9 03 be 87 ff a0 3b
       -0.2035672 0.11093646 -0.12869889 0.0049132737
0001a0 5d b0 21 bd 77 c8 1e 3e 82 b4 13 bc b0 36 a0 be
       -0.039474834 0.15506159 -0.009015204 -0.31291723
0001b0 09 df 4d bc e4 a3 97 be 40 c7 ce 3d ea 78 eb 3d
       -0.012565383 -0.29617226 0.10096598 0.11497672
0001c0 70 de 69 3c a2 b5 b5 3d 5f 1d d7 3d 83 3e 0c 3e
       0.014274225 0.08872534 0.10503649 0.13695721
0001d0 db 2a 8f bd 21 1c b6 3c d7 cc aa be 5f 8a 97 3d
       -0.06990596 0.02223021 -0.33359405 0.07399439
0001e0 f7 63 4b 3e d8 cb 95 bc 8b ed ca 3b 35 38 cf bc
       0.19862352 -0.018285677 0.006192868 -0.025295356
0001f0 97 3a a5 be f5 0b b5 3d 41 04 a3 be bb 61 fc 3d
       -0.32271263 0.08840171 -0.31839183 0.12323328
000200 4b d0 22 bd 6a 0f dd bd cb ce 94 3d c9 4b 40 bd
       -0.039749425 -0.107939556 0.07266005 -0.046947274
000210 00 03 64 3d 36 e0 96 3c db 5e 12 be c5 01 0c 3d
       0.055666924 0.018417459 -0.14293997 0.034181375
000220 9d 1c 33 bc ee 02 94 3d 49 46 28 3e 4f 94 4c 3d
       -0.010932115 0.07227121 0.16433062 0.049946126
000230 43 97 ab 3d 66 60 90 bd 4f 2a 16 be b5 e8 5a be
       0.0837846 -0.070496365 -0.14664577 -0.21377833
000240 c2 7a 92 3d b0 65 ea 3d b6 52 94 3e d5 2e 80 be
       0.071523204 0.114451766 0.28969353 -0.2503573
000250 b1 9e 16 bd 34 7d c1 bc 02 16 55 bd 77 3c e2 3d
       -0.036772434 -0.023619272 -0.05202294 0.11046689
000260 43 a1 7f bd df c3 9c be 3f 16 2b 3d 21 40 43 be
       -0.06240965 -0.30618188 0.041769262 -0.19067432
000270 6a 59 ee 3d 2d a4 d5 bc 7b 6e 7a bd 33 d2 e6 bb
       0.11638148 -0.026079262 -0.06114052 -0.0070441007
000280 07 17 03 3e 75 92 fe bc 76 d8 3e be b0 ce 76 bc
       0.12801753 -0.031075696 -0.18637261 -0.015063927
000290 36 21 e0 ba b4 e6 b8 bd 24 bb e7 3d d3 88 88 bd
       -0.0017099741 -0.09028378 0.11314991 -0.06666722
0002a0 72 ed e0 bd b8 ce 8c be 60 60 7a bd 67 38 a0 bd
       -0.10982789 -0.27501464 -0.061127067 -0.07823258
0002b0 15 d1 35 bd 79 6b db bc a0 ef e6 3c 66 c9 d2 3c
       -0.04438885 -0.026784645 0.028190434 0.0257308
0002c0 de 2b 50 3d 3d 35 9a 3c d5 ed 16 3d 9a 14 44 3b
       0.050823085 0.018824214 0.036847908 0.0029919506
0002d0 69 33 e2 bd d2 4e 2b be 96 83 18 b9 22 a9 00 3e
       -0.11044962 -0.16729286 -0.00014544869 0.12564519
0002e0 cf 2b a0 3c c0 3c 38 bd 04 da 21 bd 3b 35 ae 3d
       0.01955214 -0.04497981 -0.039514557 0.08506247
0002f0 fb 40 d8 bb b4 73 fa bb cd ea 59 be c5 36 7c bd
       -0.006599543 -0.0076431874 -0.21280976 -0.06157567
000300 eb 47 9f bd 65 9a d4 bc d7 3e b0 3c b1 e3 7a bc
       -0.07777389 -0.025952527 0.02151434 -0.015313075
000310 72 f4 db 3a a5 8f e3 3c cb 6a 38 be fa 68 03 bd
       0.0016781224 0.027778456 -0.18009488 -0.032082535
000320 9c 30 bc 3d ae bc 91 3d f2 68 20 3e 61 3b be 3d
       0.09188959 0.07116066 0.15665033 0.092886694
000330 99 39 78 3d da c2 12 3d fa b8 e1 bc 3f 30 77 bd
       0.060601804 0.035830356 -0.027554024 -0.060348745
000340 51 e3 00 3d 30 57 6c bd 56 2e 74 be 97 ee 85 3d
       0.031466786 -0.057700336 -0.23845801 0.06539648
000350 d2 e5 a0 3c 14 e6 2f 3a e1 2f 15 3d c0 02 5a 3d
       0.019640837 0.00067100045 0.036422614 0.05322528
000360 fa ed 16 be 34 b1 82 bb 1d 2a 02 3d 51 3c 0c bd
       -0.14739218 -0.0039884094 0.031778444 -0.03423721
000370 e5 2a 39 bd 6c 90 1c 3e d9 c4 b8 be 32 5e 40 be
       -0.045206923 0.15289468 -0.36087683 -0.18785933
000380 2f 36 11 3e c6 8b 2c 3e aa 2a 85 bd 3c c6 06 be
       0.14180826 0.16850194 -0.06502278 -0.13161558
000390 e7 83 3a bc 85 f7 02 be 1a db 4b 3d 7e 49 96 bc
       -0.011383987 -0.12789734 0.0497695 -0.01834559
0003a0 1c 7b cb 3d 28 aa 0a 3e ce 95 52 3d c1 e6 4c bd
       0.099355906 0.13541472 0.051412396 -0.05002475
0003b0 85 83 4a bc e8 51 1b 3d 4a 19 98 bd 11 be 26 3e
       -0.012360458 0.03791991 -0.074266985 0.16283442
0003c0 04 06 8b bc 03 94 a8 3d ab 5e 93 bd 29 d4 14 3c
       -0.016970642 0.08231356 -0.07195791 0.009083786
0003d0 82 86 ae 3d 3c 2b 87 bc b9 fe 5c be 35 92 39 bc
       0.08521749 -0.016500108 -0.21581544 -0.011326362
0003e0 da 58 1b bd 04 19 c9 bc 57 a8 df 3d 5f 71 70 3b
       -0.037926532 -0.024548061 0.1092078 0.0036688668
0003f0 2e 49 aa bd c9 33 18 bd c6 b2 1e 3d c0 05 3a be
       -0.08314739 -0.03715876 0.03874471 -0.18166256

fc2.bias f4 [10]
000000 40 1f 9d be 56 73 4f be 88 79 80 be d6 59 81 3e
       -0.30687904 -0.20258841 -0.2509272 0.25263852
000010 e0 e3 53 3e c3 e8 80 bd 27 bd 16 3e 83 e2 c6 bd
       0.20692396 -0.06294396 0.14720593 -0.097111724
000020 32 52 43 3e a4 4f 2a 3e
       0.19074324 0.16631943
